PE_M5_10LL_25PL_100Bars_NLH
Architecture Info
Model: "sequential_2"
_________________________________________________________________
 Layer (type)                Output Shape              Param #   
=================================================================
 dense_16 (Dense)            (None, 128)               393344    
                                                                 
 dense_17 (Dense)            (None, 256)               33024     
                                                                 
 dropout_10 (Dropout)        (None, 256)               0         
                                                                 
 dense_18 (Dense)            (None, 128)               32896     
                                                                 
 dropout_11 (Dropout)        (None, 128)               0         
                                                                 
 dense_19 (Dense)            (None, 64)                8256      
                                                                 
 dropout_12 (Dropout)        (None, 64)                0         
                                                                 
 dense_20 (Dense)            (None, 32)                2080      
                                                                 
 dropout_13 (Dropout)        (None, 32)                0         
                                                                 
 dense_21 (Dense)            (None, 16)                528       
                                                                 
 dropout_14 (Dropout)        (None, 16)                0         
                                                                 
 dense_22 (Dense)            (None, 10)                170       
                                                                 
 dense_23 (Dense)            (None, 3)                 33        
                                                                 
=================================================================
Total params: 470,331
Trainable params: 470,331
Non-trainable params: 0
_________________________________________________________________
Accuracy: 0.3626
Precision: 0.3626
Recall: 0.3626
Time Trained: 499.0s
Trained on: EURUSD.a_M5_201709040000_202109031210NLH10SL_100Bars.csv
…
