PE_M5_CCI_SignalAffirmer
Architecture Info
Model: "sequential"
_________________________________________________________________
 Layer (type)                Output Shape              Param #   
=================================================================
 dense (Dense)               (None, 64)                196672    
                                                                 
 dropout (Dropout)           (None, 64)                0         
                                                                 
 dense_1 (Dense)             (None, 128)               8320      
                                                                 
 dropout_1 (Dropout)         (None, 128)               0         
                                                                 
 dense_2 (Dense)             (None, 64)                8256      
                                                                 
 dropout_2 (Dropout)         (None, 64)                0         
                                                                 
 dense_3 (Dense)             (None, 10)                650       
                                                                 
 dense_4 (Dense)             (None, 1)                 11        
                                                                 
=================================================================
Total params: 213,909
Trainable params: 213,909
Non-trainable params: 0
_________________________________________________________________
Accuracy: 0.5932
Precision: 0.2866
Recall: 0.3824
Time Trained: 22.0s
Periods: 256
Trained on: CCI_301022-123427_EURUSD.a_M5__2017-09-04_to_2021-09-03_15Limit_MappedWIndicators2.csv
…
