GRU_M5_CCI_SignalAffirmer
Architecture Info
Model: "sequential_4"
_________________________________________________________________
 Layer (type)                Output Shape              Param #   
=================================================================
 gru (GRU)                   (None, 64)                13824     
                                                                 
 dense_12 (Dense)            (None, 32)                2080      
                                                                 
 dropout_8 (Dropout)         (None, 32)                0         
                                                                 
 dense_13 (Dense)            (None, 10)                330       
                                                                 
 dropout_9 (Dropout)         (None, 10)                0         
                                                                 
 dense_14 (Dense)            (None, 1)                 11        
                                                                 
=================================================================
Total params: 16,245
Trainable params: 16,245
Non-trainable params: 0
_________________________________________________________________
Accuracy: 0.6868
Precision: 0.3273
Recall: 0.1978
Time Trained: 23.0s
Trained on: CCI_301022-123427_EURUSD.a_M5__2017-09-04_to_2021-09-03_15Limit_Mapped.csv
…
