RNN_M5_CCI_SignalAffirmer
Architecture Info
Model: "sequential"
_________________________________________________________________
 Layer (type)                Output Shape              Param #   
=================================================================
 simple_rnn (SimpleRNN)      (None, 128)               17280     
                                                                 
 dense (Dense)               (None, 32)                4128      
                                                                 
 dropout (Dropout)           (None, 32)                0         
                                                                 
 dense_1 (Dense)             (None, 10)                330       
                                                                 
 dropout_1 (Dropout)         (None, 10)                0         
                                                                 
 dense_2 (Dense)             (None, 1)                 11        
                                                                 
=================================================================
Total params: 21,749
Trainable params: 21,749
Non-trainable params: 0
_________________________________________________________________
Accuracy: 0.2591
Precision: 0.2591
Recall: 1.0
Time Trained: 144.0s
Trained on: CCI_301022-123427_EURUSD.a_M5__2017-09-04_to_2021-09-03_15Limit_Mapped.csv
…
