RNN_M5_pSAR_SignalAffirmer
Architecture Info
Model: "sequential"
_________________________________________________________________
 Layer (type)                Output Shape              Param #   
=================================================================
 simple_rnn (SimpleRNN)      (None, 64)                4544      
                                                                 
 dense (Dense)               (None, 32)                2080      
                                                                 
 dropout (Dropout)           (None, 32)                0         
                                                                 
 dense_1 (Dense)             (None, 10)                330       
                                                                 
 dropout_1 (Dropout)         (None, 10)                0         
                                                                 
 dense_2 (Dense)             (None, 1)                 11        
                                                                 
=================================================================
Total params: 6,965
Trainable params: 6,965
Non-trainable params: 0
_________________________________________________________________
Accuracy: 0.5233
Precision: 0.2846
Recall: 0.5217
Time Trained: 158.0s
Trained on: pSAR_301022-143321_EURUSD.a_M5__2017-09-04_to_2021-09-03_15Limit_Mapped.csv
…
